MolOpt(
  (embedding): Embedding(545, 64)
  (encoder): MolEncoder(
    (embedding): Embedding(545, 64)
    (W_a): Linear(in_features=106, out_features=64, bias=True)
    (outputAtom): Sequential(
      (0): Linear(in_features=358, out_features=64, bias=True)
      (1): ReLU()
    )
    (W_i): Linear(in_features=128, out_features=64, bias=True)
    (W_g): Linear(in_features=128, out_features=64, bias=True)
    (W_t): Linear(in_features=128, out_features=64, bias=True)
    (outputNode): Sequential(
      (0): Linear(in_features=256, out_features=64, bias=True)
      (1): ReLU()
    )
  )
  (decoder): MolDecoder(
    (embedding): Embedding(545, 64)
    (encoder): MolEncoder(
      (embedding): Embedding(545, 64)
      (W_a): Linear(in_features=106, out_features=64, bias=True)
      (outputAtom): Sequential(
        (0): Linear(in_features=358, out_features=64, bias=True)
        (1): ReLU()
      )
      (W_i): Linear(in_features=128, out_features=64, bias=True)
      (W_g): Linear(in_features=128, out_features=64, bias=True)
      (W_t): Linear(in_features=128, out_features=64, bias=True)
      (outputNode): Sequential(
        (0): Linear(in_features=256, out_features=64, bias=True)
        (1): ReLU()
      )
    )
    (W_a1): Linear(in_features=272, out_features=64, bias=True)
    (U_a1): Linear(in_features=64, out_features=1, bias=True)
    (W_a2): Linear(in_features=208, out_features=64, bias=True)
    (U_a2): Linear(in_features=64, out_features=1, bias=True)
    (W_a): Linear(in_features=96, out_features=64, bias=True)
    (U_a): Linear(in_features=64, out_features=1, bias=True)
    (W_d): Linear(in_features=80, out_features=64, bias=True)
    (U_d): Linear(in_features=64, out_features=1, bias=True)
    (W_t): Linear(in_features=80, out_features=64, bias=True)
    (U_t): Linear(in_features=64, out_features=1, bias=True)
    (W_n): Linear(in_features=80, out_features=64, bias=True)
    (U_n): Linear(in_features=64, out_features=545, bias=True)
    (tart_loss): CrossEntropyLoss()
    (del_loss): BCEWithLogitsLoss()
    (node_loss): CrossEntropyLoss()
    (topo_loss): BCEWithLogitsLoss()
  )
  (del_mean): Linear(in_features=64, out_features=16, bias=False)
  (del_var): Linear(in_features=64, out_features=16, bias=False)
  (add_mean): Linear(in_features=64, out_features=16, bias=False)
  (add_var): Linear(in_features=64, out_features=16, bias=False)
)
Model #Params: 198.374K
[20/0/19] timecost: 54.92, Beta: 0.100, Loss: 27.138, KL: 7.04, target: (2.5469, 0.2250), del(19.45, 23.15): (0.9152, 0.5427, 0.1415), node(95.15): (16.0977, 0.1744), topo(182.65, 95.15): (3.8528, 0.5949, 0.5325), atom1(31.40): (1.7976, 0.3053), atom2(6.85): (1.2246, 0.3695), PNorm: 188.37, GNorm: 16.67
[40/0/39] timecost: 47.12, Beta: 0.100, Loss: 16.581, KL: 5.78, target: (2.3048, 0.2906), del(19.55, 23.60): (0.8939, 0.5884, 0.1416), node(92.35): (7.1140, 0.4105), topo(178.65, 92.35): (2.7715, 0.7788, 0.6942), atom1(29.30): (1.7663, 0.3105), atom2(6.50): (1.1520, 0.5360), PNorm: 188.47, GNorm: 13.57
…
