MolOpt(
  (embedding): Embedding(511, 32)
  (encoder): MolEncoder(
    (embedding): Embedding(511, 32)
    (W_a): Linear(in_features=298, out_features=256, bias=True)
    (outputAtom): Sequential(
      (0): Linear(in_features=1062, out_features=256, bias=True)
      (1): ReLU()
    )
    (W_i): Linear(in_features=288, out_features=256, bias=True)
    (W_g): Linear(in_features=512, out_features=256, bias=True)
    (W_t): Linear(in_features=512, out_features=256, bias=True)
    (outputNode): Sequential(
      (0): Linear(in_features=1280, out_features=256, bias=True)
      (1): ReLU()
    )
  )
  (decoder): MolDecoder(
    (embedding): Embedding(511, 32)
    (encoder): MolEncoder(
      (embedding): Embedding(511, 32)
      (W_a): Linear(in_features=298, out_features=256, bias=True)
      (outputAtom): Sequential(
        (0): Linear(in_features=1062, out_features=256, bias=True)
        (1): ReLU()
      )
      (W_i): Linear(in_features=288, out_features=256, bias=True)
      (W_g): Linear(in_features=512, out_features=256, bias=True)
      (W_t): Linear(in_features=512, out_features=256, bias=True)
      (outputNode): Sequential(
        (0): Linear(in_features=1280, out_features=256, bias=True)
        (1): ReLU()
      )
    )
    (W_a1): Linear(in_features=816, out_features=256, bias=True)
    (U_a1): Linear(in_features=256, out_features=1, bias=True)
    (W_a2): Linear(in_features=560, out_features=256, bias=True)
    (U_a2): Linear(in_features=256, out_features=1, bias=True)
    (W_a): Linear(in_features=288, out_features=256, bias=True)
    (U_a): Linear(in_features=256, out_features=1, bias=True)
    (W_d): Linear(in_features=272, out_features=256, bias=True)
    (U_d): Linear(in_features=256, out_features=1, bias=True)
    (W_t): Linear(in_features=272, out_features=256, bias=True)
    (U_t): Linear(in_features=256, out_features=1, bias=True)
    (W_n): Linear(in_features=272, out_features=256, bias=True)
    (U_n): Linear(in_features=256, out_features=511, bias=True)
    (tart_loss): CrossEntropyLoss()
    (del_loss): BCEWithLogitsLoss()
    (node_loss): CrossEntropyLoss()
    (topo_loss): BCEWithLogitsLoss()
  )
  (del_mean): Linear(in_features=256, out_features=16, bias=False)
  (del_var): Linear(in_features=256, out_features=16, bias=False)
  (add_mean): Linear(in_features=256, out_features=16, bias=False)
  (add_var): Linear(in_features=256, out_features=16, bias=False)
)
Model #Params: 1815.012K
[20/0/19] timecost: 47.75, Beta: 0.100, Loss: 17.744, KL: 3.33, target: (2.3724, 0.1703), del(32.10, 35.60): (1.3377, 0.6486, 0.5087), node(60.65): (8.4270, 0.2828), topo(111.75, 60.65): (2.1864, 0.6696, 0.6745), atom1(16.05): (1.7456, 0.2996), atom2(9.60): (1.3417, 0.4025), PNorm: 133.73, GNorm: 9.85
[40/0/39] timecost: 42.86, Beta: 0.100, Loss: 13.122, KL: 1.96, target: (2.1314, 0.2453), del(32.30, 35.25): (1.1687, 0.7108, 0.6230), node(63.40): (5.1303, 0.3519), topo(116.85, 63.40): (1.4105, 0.8489, 0.8694), atom1(18.05): (1.7133, 0.2656), atom2(9.70): (1.3712, 0.2810), PNorm: 134.03, GNorm: 14.85
…
