Found local copy...
MolOpt(
  (embedding): Embedding(441, 32)
  (encoder): MolEncoder(
    (embedding): Embedding(441, 32)
    (W_a): Linear(in_features=362, out_features=320, bias=True)
    (outputAtom): Sequential(
      (0): Linear(in_features=1958, out_features=320, bias=True)
      (1): ReLU()
    )
    (W_i): Linear(in_features=352, out_features=320, bias=True)
    (W_g): Linear(in_features=640, out_features=320, bias=True)
    (W_t): Linear(in_features=640, out_features=320, bias=True)
    (outputNode): Sequential(
      (0): Linear(in_features=1920, out_features=320, bias=True)
      (1): ReLU()
    )
  )
  (decoder): MolDecoder(
    (embedding): Embedding(441, 32)
    (encoder): MolEncoder(
      (embedding): Embedding(441, 32)
      (W_a): Linear(in_features=362, out_features=320, bias=True)
      (outputAtom): Sequential(
        (0): Linear(in_features=1958, out_features=320, bias=True)
        (1): ReLU()
      )
      (W_i): Linear(in_features=352, out_features=320, bias=True)
      (W_g): Linear(in_features=640, out_features=320, bias=True)
      (W_t): Linear(in_features=640, out_features=320, bias=True)
      (outputNode): Sequential(
        (0): Linear(in_features=1920, out_features=320, bias=True)
        (1): ReLU()
      )
    )
    (W_a1): Linear(in_features=1024, out_features=320, bias=True)
    (U_a1): Linear(in_features=320, out_features=1, bias=True)
    (W_a2): Linear(in_features=704, out_features=320, bias=True)
    (U_a2): Linear(in_features=320, out_features=1, bias=True)
    (W_a): Linear(in_features=384, out_features=320, bias=True)
    (U_a): Linear(in_features=320, out_features=1, bias=True)
    (W_d): Linear(in_features=352, out_features=320, bias=True)
    (U_d): Linear(in_features=320, out_features=1, bias=True)
    (W_t): Linear(in_features=352, out_features=320, bias=True)
    (U_t): Linear(in_features=320, out_features=1, bias=True)
    (W_n): Linear(in_features=352, out_features=320, bias=True)
    (U_n): Linear(in_features=320, out_features=441, bias=True)
    (tart_loss): CrossEntropyLoss()
    (del_loss): BCEWithLogitsLoss()
    (node_loss): CrossEntropyLoss()
    (topo_loss): BCEWithLogitsLoss()
  )
  (del_mean): Linear(in_features=320, out_features=32, bias=False)
  (del_var): Linear(in_features=320, out_features=32, bias=False)
  (add_mean): Linear(in_features=320, out_features=32, bias=False)
  (add_var): Linear(in_features=320, out_features=32, bias=False)
)
Model #Params: 3094.878K
[8760/4/11] timecost: 36.78, Beta: 0.500, Loss: 2.380, KL: 1.20, target: (0.5478, 0.4250), del(16.85, 18.90): (0.1350, 0.5768, 0.5813), node(49.40): (0.7896, 0.5036), topo(93.45, 49.40): (0.0748, 0.5914, 0.5917), atom1(17.30): (0.1838, 0.2710), atom2(6.15): (0.0481, 0.5770), PNorm: 192.71, GNorm: 14.86
[8780/4/31] timecost: 49.48, Beta: 0.500, Loss: 3.743, KL: 2.15, target: (0.7679, 0.7219), del(29.35, 32.65): (0.2403, 0.9544, 0.9643), node(75.70): (1.0776, 0.8538), topo(142.75, 75.70): (0.1514, 0.9850, 0.9805), atom1(28.20): (0.3471, 0.4273), atom2(10.75): (0.0815, 0.9845), PNorm: 193.58, GNorm: 7.89
…
